…
le=0.5, shear=0.0, perspective=0.0, flipud=0.0, fliplr=0.5, mosaic=1.0, mixup=0.0, copy_paste=0.0, cfg=None, tracker=botsort.yaml, save_dir=models\108
[34m[1mtrain:[39m[22m C:\Users\domai\Desktop\PFJUPITER\driver_detection\processed_dataset\Mask\train... found 6326 images in 7 classes
[34m[1mval:[39m[22m C:\Users\domai\Desktop\PFJUPITER\driver_detection\processed_dataset\Mask\val... found 151 images in 7 classes
[34m[1mtest:[39m[22m None...
                   from  n    params  module                                       arguments
  0                  -1  1       928  ultralytics.nn.modules.conv.Conv             [3, 32, 3, 2]
  1                  -1  1     18560  ultralytics.nn.modules.conv.Conv             [32, 64, 3, 2]
  2                  -1  1     29056  ultralytics.nn.modules.block.C2f             [64, 64, 1, True]
  3                  -1  1     73984  ultralytics.nn.modules.conv.Conv             [64, 128, 3, 2]
  4                  -1  2    197632  ultralytics.nn.modules.block.C2f             [128, 128, 2, True]
  5                  -1  1    295424  ultralytics.nn.modules.conv.Conv             [128, 256, 3, 2]
  6                  -1  2    788480  ultralytics.nn.modules.block.C2f             [256, 256, 2, True]
  7                  -1  1   1180672  ultralytics.nn.modules.conv.Conv             [256, 512, 3, 2]
  8                  -1  1   1838080  ultralytics.nn.modules.block.C2f             [512, 512, 1, True]
  9                  -1  1    666887  ultralytics.nn.modules.head.Classify         [512, 7]
YOLOv8s-cls summary: 99 layers, 5089703 parameters, 5089703 gradients, 12.6 GFLOPs
Transferred 158/158 items from pretrained weights
[34m[1mtrain: [39m[22mScanning C:\Users\domai\Desktop\PFJUPITER\driver_detection\processed_dataset\Mask\train... 6326 images, 0 corrupt: 100%|â–ˆâ–ˆâ–ˆâ–ˆâ–ˆâ–ˆâ–ˆâ–ˆâ–ˆâ–ˆ| 6326/6326 [00:00<?, ?it/s]
[34m[1mval: [39m[22mScanning C:\Users\domai\Desktop\PFJUPITER\driver_detection\processed_dataset\Mask\val... 151 images, 0 corrupt: 100%|â–ˆâ–ˆâ–ˆâ–ˆâ–ˆâ–ˆâ–ˆâ–ˆâ–ˆâ–ˆ| 151/151 [00:00<?, ?it/s]
…
